…
        "outputId": "c75414df-cde8-4cb2-da9d-5d236ae336ef"
      },
      "source": [
        "from torchsummary import summary\n",
        "\n",
        "summary(model, input_size = (3,224,224))"
      ],
      "execution_count": 6,
      "outputs": [
        {
          "output_type": "stream",
          "name": "stdout",
          "text": [
            "----------------------------------------------------------------\n",
            "        Layer (type)               Output Shape         Param #\n",
            "================================================================\n",
            "            Conv2d-1         [-1, 64, 224, 224]           1,792\n",
            "              ReLU-2         [-1, 64, 224, 224]               0\n",
            "            Conv2d-3         [-1, 64, 224, 224]          36,928\n",
            "              ReLU-4         [-1, 64, 224, 224]               0\n",
            "         MaxPool2d-5         [-1, 64, 112, 112]               0\n",
            "            Conv2d-6        [-1, 128, 112, 112]          73,856\n",
            "              ReLU-7        [-1, 128, 112, 112]               0\n",
            "            Conv2d-8        [-1, 128, 112, 112]         147,584\n",
            "              ReLU-9        [-1, 128, 112, 112]               0\n",
            "        MaxPool2d-10          [-1, 128, 56, 56]               0\n",
            "           Conv2d-11          [-1, 256, 56, 56]         295,168\n",
            "             ReLU-12          [-1, 256, 56, 56]               0\n",
            "           Conv2d-13          [-1, 256, 56, 56]         590,080\n",
            "             ReLU-14          [-1, 256, 56, 56]               0\n",
            "           Conv2d-15          [-1, 256, 56, 56]         590,080\n",
            "             ReLU-16          [-1, 256, 56, 56]               0\n",
            "        MaxPool2d-17          [-1, 256, 28, 28]               0\n",
            "           Conv2d-18          [-1, 512, 28, 28]       1,180,160\n",
            "             ReLU-19          [-1, 512, 28, 28]               0\n",
            "           Conv2d-20          [-1, 512, 28, 28]       2,359,808\n",
            "             ReLU-21          [-1, 512, 28, 28]               0\n",
            "           Conv2d-22          [-1, 512, 28, 28]       2,359,808\n",
            "             ReLU-23          [-1, 512, 28, 28]               0\n",
            "        MaxPool2d-24          [-1, 512, 14, 14]               0\n",
            "           Conv2d-25          [-1, 512, 14, 14]       2,359,808\n",
            "             ReLU-26          [-1, 512, 14, 14]               0\n",
            "           Conv2d-27          [-1, 512, 14, 14]       2,359,808\n",
            "             ReLU-28          [-1, 512, 14, 14]               0\n",
            "           Conv2d-29          [-1, 512, 14, 14]       2,359,808\n",
            "             ReLU-30          [-1, 512, 14, 14]               0\n",
            "        MaxPool2d-31            [-1, 512, 7, 7]               0\n",
            "AdaptiveAvgPool2d-32            [-1, 512, 7, 7]               0\n",
            "           Linear-33                 [-1, 4096]     102,764,544\n",
            "             ReLU-34                 [-1, 4096]               0\n",
            "          Dropout-35                 [-1, 4096]               0\n",
            "           Linear-36                 [-1, 4096]      16,781,312\n",
            "             ReLU-37                 [-1, 4096]               0\n",
            "          Dropout-38                 [-1, 4096]               0\n",
            "           Linear-39                 [-1, 1000]       4,097,000\n",
            "================================================================\n",
            "Total params: 138,357,544\n",
            "Trainable params: 138,357,544\n",
            "Non-trainable params: 0\n",
            "----------------------------------------------------------------\n",
            "Input size (MB): 0.57\n",
            "Forward/backward pass size (MB): 218.78\n",
            "Params size (MB): 527.79\n",
…
      "source": [
        "# Show Model Parameters\n",
        "from torchsummary import summary\n",
        "\n",
        "summary(model, input_size = (3,224,224))"
      ],
      "execution_count": 16,
      "outputs": [
        {
          "output_type": "stream",
          "name": "stdout",
          "text": [
            "----------------------------------------------------------------\n",
            "        Layer (type)               Output Shape         Param #\n",
            "================================================================\n",
            "            Conv2d-1         [-1, 64, 112, 112]           9,408\n",
            "       BatchNorm2d-2         [-1, 64, 112, 112]             128\n",
            "              ReLU-3         [-1, 64, 112, 112]               0\n",
            "         MaxPool2d-4           [-1, 64, 56, 56]               0\n",
            "            Conv2d-5           [-1, 64, 56, 56]          36,864\n",
            "       BatchNorm2d-6           [-1, 64, 56, 56]             128\n",
            "              ReLU-7           [-1, 64, 56, 56]               0\n",
            "            Conv2d-8           [-1, 64, 56, 56]          36,864\n",
            "       BatchNorm2d-9           [-1, 64, 56, 56]             128\n",
            "             ReLU-10           [-1, 64, 56, 56]               0\n",
            "       BasicBlock-11           [-1, 64, 56, 56]               0\n",
            "           Conv2d-12           [-1, 64, 56, 56]          36,864\n",
            "      BatchNorm2d-13           [-1, 64, 56, 56]             128\n",
            "             ReLU-14           [-1, 64, 56, 56]               0\n",
            "           Conv2d-15           [-1, 64, 56, 56]          36,864\n",
            "      BatchNorm2d-16           [-1, 64, 56, 56]             128\n",
            "             ReLU-17           [-1, 64, 56, 56]               0\n",
            "       BasicBlock-18           [-1, 64, 56, 56]               0\n",
            "           Conv2d-19          [-1, 128, 28, 28]          73,728\n",
            "      BatchNorm2d-20          [-1, 128, 28, 28]             256\n",
            "             ReLU-21          [-1, 128, 28, 28]               0\n",
            "           Conv2d-22          [-1, 128, 28, 28]         147,456\n",
            "      BatchNorm2d-23          [-1, 128, 28, 28]             256\n",
            "           Conv2d-24          [-1, 128, 28, 28]           8,192\n",
            "      BatchNorm2d-25          [-1, 128, 28, 28]             256\n",
            "             ReLU-26          [-1, 128, 28, 28]               0\n",
            "       BasicBlock-27          [-1, 128, 28, 28]               0\n",
            "           Conv2d-28          [-1, 128, 28, 28]         147,456\n",
            "      BatchNorm2d-29          [-1, 128, 28, 28]             256\n",
            "             ReLU-30          [-1, 128, 28, 28]               0\n",
            "           Conv2d-31          [-1, 128, 28, 28]         147,456\n",
            "      BatchNorm2d-32          [-1, 128, 28, 28]             256\n",
            "             ReLU-33          [-1, 128, 28, 28]               0\n",
            "       BasicBlock-34          [-1, 128, 28, 28]               0\n",
            "           Conv2d-35          [-1, 256, 14, 14]         294,912\n",
            "      BatchNorm2d-36          [-1, 256, 14, 14]             512\n",
            "             ReLU-37          [-1, 256, 14, 14]               0\n",
            "           Conv2d-38          [-1, 256, 14, 14]         589,824\n",
            "      BatchNorm2d-39          [-1, 256, 14, 14]             512\n",
            "           Conv2d-40          [-1, 256, 14, 14]          32,768\n",
            "      BatchNorm2d-41          [-1, 256, 14, 14]             512\n",
            "             ReLU-42          [-1, 256, 14, 14]               0\n",
            "       BasicBlock-43          [-1, 256, 14, 14]               0\n",
            "           Conv2d-44          [-1, 256, 14, 14]         589,824\n",
            "      BatchNorm2d-45          [-1, 256, 14, 14]             512\n",
            "             ReLU-46          [-1, 256, 14, 14]               0\n",
            "           Conv2d-47          [-1, 256, 14, 14]         589,824\n",
            "      BatchNorm2d-48          [-1, 256, 14, 14]             512\n",
            "             ReLU-49          [-1, 256, 14, 14]               0\n",
            "       BasicBlock-50          [-1, 256, 14, 14]               0\n",
            "           Conv2d-51            [-1, 512, 7, 7]       1,179,648\n",
            "      BatchNorm2d-52            [-1, 512, 7, 7]           1,024\n",
            "             ReLU-53            [-1, 512, 7, 7]               0\n",
            "           Conv2d-54            [-1, 512, 7, 7]       2,359,296\n",
            "      BatchNorm2d-55            [-1, 512, 7, 7]           1,024\n",
            "           Conv2d-56            [-1, 512, 7, 7]         131,072\n",
            "      BatchNorm2d-57            [-1, 512, 7, 7]           1,024\n",
            "             ReLU-58            [-1, 512, 7, 7]               0\n",
            "       BasicBlock-59            [-1, 512, 7, 7]               0\n",
            "           Conv2d-60            [-1, 512, 7, 7]       2,359,296\n",
            "      BatchNorm2d-61            [-1, 512, 7, 7]           1,024\n",
            "             ReLU-62            [-1, 512, 7, 7]               0\n",
            "           Conv2d-63            [-1, 512, 7, 7]       2,359,296\n",
            "      BatchNorm2d-64            [-1, 512, 7, 7]           1,024\n",
            "             ReLU-65            [-1, 512, 7, 7]               0\n",
            "       BasicBlock-66            [-1, 512, 7, 7]               0\n",
            "AdaptiveAvgPool2d-67            [-1, 512, 1, 1]               0\n",
            "           Linear-68                 [-1, 1000]         513,000\n",
            "================================================================\n",
            "Total params: 11,689,512\n",
            "Trainable params: 11,689,512\n",
            "Non-trainable params: 0\n",
            "----------------------------------------------------------------\n",
            "Input size (MB): 0.57\n",
            "Forward/backward pass size (MB): 62.79\n",
            "Params size (MB): 44.59\n",
…
        "from torchsummary import summary\n",
        "\n",
        "# Note difference input sinze is expected with Inception\n",
        "summary(model, input_size = (3,299,299))"
      ],
      "execution_count": 20,
      "outputs": [
        {
          "output_type": "stream",
          "name": "stdout",
          "text": [
            "----------------------------------------------------------------\n",
            "        Layer (type)               Output Shape         Param #\n",
            "================================================================\n",
            "            Conv2d-1         [-1, 32, 149, 149]             864\n",
            "       BatchNorm2d-2         [-1, 32, 149, 149]              64\n",
            "       BasicConv2d-3         [-1, 32, 149, 149]               0\n",
            "            Conv2d-4         [-1, 32, 147, 147]           9,216\n",
            "       BatchNorm2d-5         [-1, 32, 147, 147]              64\n",
            "       BasicConv2d-6         [-1, 32, 147, 147]               0\n",
            "            Conv2d-7         [-1, 64, 147, 147]          18,432\n",
            "       BatchNorm2d-8         [-1, 64, 147, 147]             128\n",
            "       BasicConv2d-9         [-1, 64, 147, 147]               0\n",
            "        MaxPool2d-10           [-1, 64, 73, 73]               0\n",
            "           Conv2d-11           [-1, 80, 73, 73]           5,120\n",
            "      BatchNorm2d-12           [-1, 80, 73, 73]             160\n",
            "      BasicConv2d-13           [-1, 80, 73, 73]               0\n",
            "           Conv2d-14          [-1, 192, 71, 71]         138,240\n",
            "      BatchNorm2d-15          [-1, 192, 71, 71]             384\n",
            "      BasicConv2d-16          [-1, 192, 71, 71]               0\n",
            "        MaxPool2d-17          [-1, 192, 35, 35]               0\n",
            "           Conv2d-18           [-1, 64, 35, 35]          12,288\n",
            "      BatchNorm2d-19           [-1, 64, 35, 35]             128\n",
            "      BasicConv2d-20           [-1, 64, 35, 35]               0\n",
            "           Conv2d-21           [-1, 48, 35, 35]           9,216\n",
            "      BatchNorm2d-22           [-1, 48, 35, 35]              96\n",
            "      BasicConv2d-23           [-1, 48, 35, 35]               0\n",
            "           Conv2d-24           [-1, 64, 35, 35]          76,800\n",
            "      BatchNorm2d-25           [-1, 64, 35, 35]             128\n",
            "      BasicConv2d-26           [-1, 64, 35, 35]               0\n",
            "           Conv2d-27           [-1, 64, 35, 35]          12,288\n",
            "      BatchNorm2d-28           [-1, 64, 35, 35]             128\n",
            "      BasicConv2d-29           [-1, 64, 35, 35]               0\n",
            "           Conv2d-30           [-1, 96, 35, 35]          55,296\n",
            "      BatchNorm2d-31           [-1, 96, 35, 35]             192\n",
            "      BasicConv2d-32           [-1, 96, 35, 35]               0\n",
            "           Conv2d-33           [-1, 96, 35, 35]          82,944\n",
            "      BatchNorm2d-34           [-1, 96, 35, 35]             192\n",
            "      BasicConv2d-35           [-1, 96, 35, 35]               0\n",
            "           Conv2d-36           [-1, 32, 35, 35]           6,144\n",
            "      BatchNorm2d-37           [-1, 32, 35, 35]              64\n",
            "      BasicConv2d-38           [-1, 32, 35, 35]               0\n",
            "       InceptionA-39          [-1, 256, 35, 35]               0\n",
            "           Conv2d-40           [-1, 64, 35, 35]          16,384\n",
            "      BatchNorm2d-41           [-1, 64, 35, 35]             128\n",
            "      BasicConv2d-42           [-1, 64, 35, 35]               0\n",
            "           Conv2d-43           [-1, 48, 35, 35]          12,288\n",
            "      BatchNorm2d-44           [-1, 48, 35, 35]              96\n",
            "      BasicConv2d-45           [-1, 48, 35, 35]               0\n",
            "           Conv2d-46           [-1, 64, 35, 35]          76,800\n",
            "      BatchNorm2d-47           [-1, 64, 35, 35]             128\n",
            "      BasicConv2d-48           [-1, 64, 35, 35]               0\n",
            "           Conv2d-49           [-1, 64, 35, 35]          16,384\n",
            "      BatchNorm2d-50           [-1, 64, 35, 35]             128\n",
            "      BasicConv2d-51           [-1, 64, 35, 35]               0\n",
            "           Conv2d-52           [-1, 96, 35, 35]          55,296\n",
            "      BatchNorm2d-53           [-1, 96, 35, 35]             192\n",
            "      BasicConv2d-54           [-1, 96, 35, 35]               0\n",
            "           Conv2d-55           [-1, 96, 35, 35]          82,944\n",
            "      BatchNorm2d-56           [-1, 96, 35, 35]             192\n",
            "      BasicConv2d-57           [-1, 96, 35, 35]               0\n",
            "           Conv2d-58           [-1, 64, 35, 35]          16,384\n",
            "      BatchNorm2d-59           [-1, 64, 35, 35]             128\n",
            "      BasicConv2d-60           [-1, 64, 35, 35]               0\n",
            "       InceptionA-61          [-1, 288, 35, 35]               0\n",
            "           Conv2d-62           [-1, 64, 35, 35]          18,432\n",
            "      BatchNorm2d-63           [-1, 64, 35, 35]             128\n",
            "      BasicConv2d-64           [-1, 64, 35, 35]               0\n",
            "           Conv2d-65           [-1, 48, 35, 35]          13,824\n",
            "      BatchNorm2d-66           [-1, 48, 35, 35]              96\n",
            "      BasicConv2d-67           [-1, 48, 35, 35]               0\n",
            "           Conv2d-68           [-1, 64, 35, 35]          76,800\n",
            "      BatchNorm2d-69           [-1, 64, 35, 35]             128\n",
            "      BasicConv2d-70           [-1, 64, 35, 35]               0\n",
            "           Conv2d-71           [-1, 64, 35, 35]          18,432\n",
            "      BatchNorm2d-72           [-1, 64, 35, 35]             128\n",
            "      BasicConv2d-73           [-1, 64, 35, 35]               0\n",
            "           Conv2d-74           [-1, 96, 35, 35]          55,296\n",
            "      BatchNorm2d-75           [-1, 96, 35, 35]             192\n",
            "      BasicConv2d-76           [-1, 96, 35, 35]               0\n",
            "           Conv2d-77           [-1, 96, 35, 35]          82,944\n",
            "      BatchNorm2d-78           [-1, 96, 35, 35]             192\n",
            "      BasicConv2d-79           [-1, 96, 35, 35]               0\n",
            "           Conv2d-80           [-1, 64, 35, 35]          18,432\n",
            "      BatchNorm2d-81           [-1, 64, 35, 35]             128\n",
            "      BasicConv2d-82           [-1, 64, 35, 35]               0\n",
            "       InceptionA-83          [-1, 288, 35, 35]               0\n",
            "           Conv2d-84          [-1, 384, 17, 17]         995,328\n",
            "      BatchNorm2d-85          [-1, 384, 17, 17]             768\n",
            "      BasicConv2d-86          [-1, 384, 17, 17]               0\n",
            "           Conv2d-87           [-1, 64, 35, 35]          18,432\n",
            "      BatchNorm2d-88           [-1, 64, 35, 35]             128\n",
            "      BasicConv2d-89           [-1, 64, 35, 35]               0\n",
            "           Conv2d-90           [-1, 96, 35, 35]          55,296\n",
            "      BatchNorm2d-91           [-1, 96, 35, 35]             192\n",
            "      BasicConv2d-92           [-1, 96, 35, 35]               0\n",
            "           Conv2d-93           [-1, 96, 17, 17]          82,944\n",
            "      BatchNorm2d-94           [-1, 96, 17, 17]             192\n",
            "      BasicConv2d-95           [-1, 96, 17, 17]               0\n",
            "       InceptionB-96          [-1, 768, 17, 17]               0\n",
            "           Conv2d-97          [-1, 192, 17, 17]         147,456\n",
            "      BatchNorm2d-98          [-1, 192, 17, 17]             384\n",
            "      BasicConv2d-99          [-1, 192, 17, 17]               0\n",
            "          Conv2d-100          [-1, 128, 17, 17]          98,304\n",
            "     BatchNorm2d-101          [-1, 128, 17, 17]             256\n",
            "     BasicConv2d-102          [-1, 128, 17, 17]               0\n",
            "          Conv2d-103          [-1, 128, 17, 17]         114,688\n",
            "     BatchNorm2d-104          [-1, 128, 17, 17]             256\n",
            "     BasicConv2d-105          [-1, 128, 17, 17]               0\n",
            "          Conv2d-106          [-1, 192, 17, 17]         172,032\n",
            "     BatchNorm2d-107          [-1, 192, 17, 17]             384\n",
            "     BasicConv2d-108          [-1, 192, 17, 17]               0\n",
            "          Conv2d-109          [-1, 128, 17, 17]          98,304\n",
            "     BatchNorm2d-110          [-1, 128, 17, 17]             256\n",
            "     BasicConv2d-111          [-1, 128, 17, 17]               0\n",
            "          Conv2d-112          [-1, 128, 17, 17]         114,688\n",
            "     BatchNorm2d-113          [-1, 128, 17, 17]             256\n",
            "     BasicConv2d-114          [-1, 128, 17, 17]               0\n",
            "          Conv2d-115          [-1, 128, 17, 17]         114,688\n",
            "     BatchNorm2d-116          [-1, 128, 17, 17]             256\n",
            "     BasicConv2d-117          [-1, 128, 17, 17]               0\n",
            "          Conv2d-118          [-1, 128, 17, 17]         114,688\n",
            "     BatchNorm2d-119          [-1, 128, 17, 17]             256\n",
            "     BasicConv2d-120          [-1, 128, 17, 17]               0\n",
            "          Conv2d-121          [-1, 192, 17, 17]         172,032\n",
            "     BatchNorm2d-122          [-1, 192, 17, 17]             384\n",
            "     BasicConv2d-123          [-1, 192, 17, 17]               0\n",
            "          Conv2d-124          [-1, 192, 17, 17]         147,456\n",
            "     BatchNorm2d-125          [-1, 192, 17, 17]             384\n",
            "     BasicConv2d-126          [-1, 192, 17, 17]               0\n",
            "      InceptionC-127          [-1, 768, 17, 17]               0\n",
            "          Conv2d-128          [-1, 192, 17, 17]         147,456\n",
            "     BatchNorm2d-129          [-1, 192, 17, 17]             384\n",
            "     BasicConv2d-130          [-1, 192, 17, 17]               0\n",
            "          Conv2d-131          [-1, 160, 17, 17]         122,880\n",
            "     BatchNorm2d-132          [-1, 160, 17, 17]             320\n",
            "     BasicConv2d-133          [-1, 160, 17, 17]               0\n",
            "          Conv2d-134          [-1, 160, 17, 17]         179,200\n",
            "     BatchNorm2d-135          [-1, 160, 17, 17]             320\n",
            "     BasicConv2d-136          [-1, 160, 17, 17]               0\n",
            "          Conv2d-137          [-1, 192, 17, 17]         215,040\n",
            "     BatchNorm2d-138          [-1, 192, 17, 17]             384\n",
            "     BasicConv2d-139          [-1, 192, 17, 17]               0\n",
            "          Conv2d-140          [-1, 160, 17, 17]         122,880\n",
            "     BatchNorm2d-141          [-1, 160, 17, 17]             320\n",
            "     BasicConv2d-142          [-1, 160, 17, 17]               0\n",
            "          Conv2d-143          [-1, 160, 17, 17]         179,200\n",
            "     BatchNorm2d-144          [-1, 160, 17, 17]             320\n",
            "     BasicConv2d-145          [-1, 160, 17, 17]               0\n",
            "          Conv2d-146          [-1, 160, 17, 17]         179,200\n",
            "     BatchNorm2d-147          [-1, 160, 17, 17]             320\n",
            "     BasicConv2d-148          [-1, 160, 17, 17]               0\n",
            "          Conv2d-149          [-1, 160, 17, 17]         179,200\n",
            "     BatchNorm2d-150          [-1, 160, 17, 17]             320\n",
            "     BasicConv2d-151          [-1, 160, 17, 17]               0\n",
            "          Conv2d-152          [-1, 192, 17, 17]         215,040\n",
            "     BatchNorm2d-153          [-1, 192, 17, 17]             384\n",
            "     BasicConv2d-154          [-1, 192, 17, 17]               0\n",
            "          Conv2d-155          [-1, 192, 17, 17]         147,456\n",
            "     BatchNorm2d-156          [-1, 192, 17, 17]             384\n",
            "     BasicConv2d-157          [-1, 192, 17, 17]               0\n",
            "      InceptionC-158          [-1, 768, 17, 17]               0\n",
            "          Conv2d-159          [-1, 192, 17, 17]         147,456\n",
            "     BatchNorm2d-160          [-1, 192, 17, 17]             384\n",
            "     BasicConv2d-161          [-1, 192, 17, 17]               0\n",
            "          Conv2d-162          [-1, 160, 17, 17]         122,880\n",
            "     BatchNorm2d-163          [-1, 160, 17, 17]             320\n",
            "     BasicConv2d-164          [-1, 160, 17, 17]               0\n",
            "          Conv2d-165          [-1, 160, 17, 17]         179,200\n",
            "     BatchNorm2d-166          [-1, 160, 17, 17]             320\n",
            "     BasicConv2d-167          [-1, 160, 17, 17]               0\n",
            "          Conv2d-168          [-1, 192, 17, 17]         215,040\n",
            "     BatchNorm2d-169          [-1, 192, 17, 17]             384\n",
            "     BasicConv2d-170          [-1, 192, 17, 17]               0\n",
            "          Conv2d-171          [-1, 160, 17, 17]         122,880\n",
            "     BatchNorm2d-172          [-1, 160, 17, 17]             320\n",
            "     BasicConv2d-173          [-1, 160, 17, 17]               0\n",
            "          Conv2d-174          [-1, 160, 17, 17]         179,200\n",
            "     BatchNorm2d-175          [-1, 160, 17, 17]             320\n",
            "     BasicConv2d-176          [-1, 160, 17, 17]               0\n",
            "          Conv2d-177          [-1, 160, 17, 17]         179,200\n",
            "     BatchNorm2d-178          [-1, 160, 17, 17]             320\n",
            "     BasicConv2d-179          [-1, 160, 17, 17]               0\n",
            "          Conv2d-180          [-1, 160, 17, 17]         179,200\n",
            "     BatchNorm2d-181          [-1, 160, 17, 17]             320\n",
            "     BasicConv2d-182          [-1, 160, 17, 17]               0\n",
            "          Conv2d-183          [-1, 192, 17, 17]         215,040\n",
            "     BatchNorm2d-184          [-1, 192, 17, 17]             384\n",
            "     BasicConv2d-185          [-1, 192, 17, 17]               0\n",
            "          Conv2d-186          [-1, 192, 17, 17]         147,456\n",
            "     BatchNorm2d-187          [-1, 192, 17, 17]             384\n",
            "     BasicConv2d-188          [-1, 192, 17, 17]               0\n",
            "      InceptionC-189          [-1, 768, 17, 17]               0\n",
            "          Conv2d-190          [-1, 192, 17, 17]         147,456\n",
            "     BatchNorm2d-191          [-1, 192, 17, 17]             384\n",
            "     BasicConv2d-192          [-1, 192, 17, 17]               0\n",
            "          Conv2d-193          [-1, 192, 17, 17]         147,456\n",
            "     BatchNorm2d-194          [-1, 192, 17, 17]             384\n",
            "     BasicConv2d-195          [-1, 192, 17, 17]               0\n",
            "          Conv2d-196          [-1, 192, 17, 17]         258,048\n",
            "     BatchNorm2d-197          [-1, 192, 17, 17]             384\n",
            "     BasicConv2d-198          [-1, 192, 17, 17]               0\n",
            "          Conv2d-199          [-1, 192, 17, 17]         258,048\n",
            "     BatchNorm2d-200          [-1, 192, 17, 17]             384\n",
            "     BasicConv2d-201          [-1, 192, 17, 17]               0\n",
            "          Conv2d-202          [-1, 192, 17, 17]         147,456\n",
            "     BatchNorm2d-203          [-1, 192, 17, 17]             384\n",
            "     BasicConv2d-204          [-1, 192, 17, 17]               0\n",
            "          Conv2d-205          [-1, 192, 17, 17]         258,048\n",
            "     BatchNorm2d-206          [-1, 192, 17, 17]             384\n",
            "     BasicConv2d-207          [-1, 192, 17, 17]               0\n",
            "          Conv2d-208          [-1, 192, 17, 17]         258,048\n",
            "     BatchNorm2d-209          [-1, 192, 17, 17]             384\n",
            "     BasicConv2d-210          [-1, 192, 17, 17]               0\n",
            "          Conv2d-211          [-1, 192, 17, 17]         258,048\n",
            "     BatchNorm2d-212          [-1, 192, 17, 17]             384\n",
            "     BasicConv2d-213          [-1, 192, 17, 17]               0\n",
            "          Conv2d-214          [-1, 192, 17, 17]         258,048\n",
            "     BatchNorm2d-215          [-1, 192, 17, 17]             384\n",
            "     BasicConv2d-216          [-1, 192, 17, 17]               0\n",
            "          Conv2d-217          [-1, 192, 17, 17]         147,456\n",
            "     BatchNorm2d-218          [-1, 192, 17, 17]             384\n",
            "     BasicConv2d-219          [-1, 192, 17, 17]               0\n",
            "      InceptionC-220          [-1, 768, 17, 17]               0\n",
            "          Conv2d-221            [-1, 128, 5, 5]          98,304\n",
            "     BatchNorm2d-222            [-1, 128, 5, 5]             256\n",
            "     BasicConv2d-223            [-1, 128, 5, 5]               0\n",
            "          Conv2d-224            [-1, 768, 1, 1]       2,457,600\n",
            "     BatchNorm2d-225            [-1, 768, 1, 1]           1,536\n",
            "     BasicConv2d-226            [-1, 768, 1, 1]               0\n",
            "          Linear-227                 [-1, 1000]         769,000\n",
            "    InceptionAux-228                 [-1, 1000]               0\n",
            "          Conv2d-229          [-1, 192, 17, 17]         147,456\n",
            "     BatchNorm2d-230          [-1, 192, 17, 17]             384\n",
            "     BasicConv2d-231          [-1, 192, 17, 17]               0\n",
            "          Conv2d-232            [-1, 320, 8, 8]         552,960\n",
            "     BatchNorm2d-233            [-1, 320, 8, 8]             640\n",
            "     BasicConv2d-234            [-1, 320, 8, 8]               0\n",
            "          Conv2d-235          [-1, 192, 17, 17]         147,456\n",
            "     BatchNorm2d-236          [-1, 192, 17, 17]             384\n",
            "     BasicConv2d-237          [-1, 192, 17, 17]               0\n",
            "          Conv2d-238          [-1, 192, 17, 17]         258,048\n",
            "     BatchNorm2d-239          [-1, 192, 17, 17]             384\n",
            "     BasicConv2d-240          [-1, 192, 17, 17]               0\n",
            "          Conv2d-241          [-1, 192, 17, 17]         258,048\n",
            "     BatchNorm2d-242          [-1, 192, 17, 17]             384\n",
            "     BasicConv2d-243          [-1, 192, 17, 17]               0\n",
            "          Conv2d-244            [-1, 192, 8, 8]         331,776\n",
            "     BatchNorm2d-245            [-1, 192, 8, 8]             384\n",
            "     BasicConv2d-246            [-1, 192, 8, 8]               0\n",
            "      InceptionD-247           [-1, 1280, 8, 8]               0\n",
            "          Conv2d-248            [-1, 320, 8, 8]         409,600\n",
            "     BatchNorm2d-249            [-1, 320, 8, 8]             640\n",
            "     BasicConv2d-250            [-1, 320, 8, 8]               0\n",
            "          Conv2d-251            [-1, 384, 8, 8]         491,520\n",
            "     BatchNorm2d-252            [-1, 384, 8, 8]             768\n",
            "     BasicConv2d-253            [-1, 384, 8, 8]               0\n",
            "          Conv2d-254            [-1, 384, 8, 8]         442,368\n",
            "     BatchNorm2d-255            [-1, 384, 8, 8]             768\n",
            "     BasicConv2d-256            [-1, 384, 8, 8]               0\n",
            "          Conv2d-257            [-1, 384, 8, 8]         442,368\n",
            "     BatchNorm2d-258            [-1, 384, 8, 8]             768\n",
            "     BasicConv2d-259            [-1, 384, 8, 8]               0\n",
            "          Conv2d-260            [-1, 448, 8, 8]         573,440\n",
            "     BatchNorm2d-261            [-1, 448, 8, 8]             896\n",
            "     BasicConv2d-262            [-1, 448, 8, 8]               0\n",
            "          Conv2d-263            [-1, 384, 8, 8]       1,548,288\n",
            "     BatchNorm2d-264            [-1, 384, 8, 8]             768\n",
            "     BasicConv2d-265            [-1, 384, 8, 8]               0\n",
            "          Conv2d-266            [-1, 384, 8, 8]         442,368\n",
            "     BatchNorm2d-267            [-1, 384, 8, 8]             768\n",
            "     BasicConv2d-268            [-1, 384, 8, 8]               0\n",
            "          Conv2d-269            [-1, 384, 8, 8]         442,368\n",
            "     BatchNorm2d-270            [-1, 384, 8, 8]             768\n",
            "     BasicConv2d-271            [-1, 384, 8, 8]               0\n",
            "          Conv2d-272            [-1, 192, 8, 8]         245,760\n",
            "     BatchNorm2d-273            [-1, 192, 8, 8]             384\n",
            "     BasicConv2d-274            [-1, 192, 8, 8]               0\n",
            "      InceptionE-275           [-1, 2048, 8, 8]               0\n",
            "          Conv2d-276            [-1, 320, 8, 8]         655,360\n",
            "     BatchNorm2d-277            [-1, 320, 8, 8]             640\n",
            "     BasicConv2d-278            [-1, 320, 8, 8]               0\n",
            "          Conv2d-279            [-1, 384, 8, 8]         786,432\n",
            "     BatchNorm2d-280            [-1, 384, 8, 8]             768\n",
            "     BasicConv2d-281            [-1, 384, 8, 8]               0\n",
            "          Conv2d-282            [-1, 384, 8, 8]         442,368\n",
            "     BatchNorm2d-283            [-1, 384, 8, 8]             768\n",
            "     BasicConv2d-284            [-1, 384, 8, 8]               0\n",
            "          Conv2d-285            [-1, 384, 8, 8]         442,368\n",
            "     BatchNorm2d-286            [-1, 384, 8, 8]             768\n",
            "     BasicConv2d-287            [-1, 384, 8, 8]               0\n",
            "          Conv2d-288            [-1, 448, 8, 8]         917,504\n",
            "     BatchNorm2d-289            [-1, 448, 8, 8]             896\n",
            "     BasicConv2d-290            [-1, 448, 8, 8]               0\n",
            "          Conv2d-291            [-1, 384, 8, 8]       1,548,288\n",
            "     BatchNorm2d-292            [-1, 384, 8, 8]             768\n",
            "     BasicConv2d-293            [-1, 384, 8, 8]               0\n",
            "          Conv2d-294            [-1, 384, 8, 8]         442,368\n",
            "     BatchNorm2d-295            [-1, 384, 8, 8]             768\n",
            "     BasicConv2d-296            [-1, 384, 8, 8]               0\n",
            "          Conv2d-297            [-1, 384, 8, 8]         442,368\n",
            "     BatchNorm2d-298            [-1, 384, 8, 8]             768\n",
            "     BasicConv2d-299            [-1, 384, 8, 8]               0\n",
            "          Conv2d-300            [-1, 192, 8, 8]         393,216\n",
            "     BatchNorm2d-301            [-1, 192, 8, 8]             384\n",
            "     BasicConv2d-302            [-1, 192, 8, 8]               0\n",
            "      InceptionE-303           [-1, 2048, 8, 8]               0\n",
            "AdaptiveAvgPool2d-304           [-1, 2048, 1, 1]               0\n",
            "         Dropout-305           [-1, 2048, 1, 1]               0\n",
            "          Linear-306                 [-1, 1000]       2,049,000\n",
            "================================================================\n",
            "Total params: 27,161,264\n",
            "Trainable params: 27,161,264\n",
            "Non-trainable params: 0\n",
            "----------------------------------------------------------------\n",
            "Input size (MB): 1.02\n",
            "Forward/backward pass size (MB): 228.66\n",
            "Params size (MB): 103.61\n",
…
      "source": [
        "# Show Model Parameters\n",
        "from torchsummary import summary\n",
        "\n",
        "summary(model, input_size = (3,224,224))"
      ],
      "execution_count": 24,
      "outputs": [
        {
          "output_type": "stream",
          "name": "stdout",
          "text": [
            "----------------------------------------------------------------\n",
            "        Layer (type)               Output Shape         Param #\n",
            "================================================================\n",
            "            Conv2d-1         [-1, 32, 112, 112]             864\n",
            "       BatchNorm2d-2         [-1, 32, 112, 112]              64\n",
            "             ReLU6-3         [-1, 32, 112, 112]               0\n",
            "            Conv2d-4         [-1, 32, 112, 112]             288\n",
            "       BatchNorm2d-5         [-1, 32, 112, 112]              64\n",
            "             ReLU6-6         [-1, 32, 112, 112]               0\n",
            "            Conv2d-7         [-1, 16, 112, 112]             512\n",
            "       BatchNorm2d-8         [-1, 16, 112, 112]              32\n",
            "  InvertedResidual-9         [-1, 16, 112, 112]               0\n",
            "           Conv2d-10         [-1, 96, 112, 112]           1,536\n",
            "      BatchNorm2d-11         [-1, 96, 112, 112]             192\n",
            "            ReLU6-12         [-1, 96, 112, 112]               0\n",
            "           Conv2d-13           [-1, 96, 56, 56]             864\n",
            "      BatchNorm2d-14           [-1, 96, 56, 56]             192\n",
            "            ReLU6-15           [-1, 96, 56, 56]               0\n",
            "           Conv2d-16           [-1, 24, 56, 56]           2,304\n",
            "      BatchNorm2d-17           [-1, 24, 56, 56]              48\n",
            " InvertedResidual-18           [-1, 24, 56, 56]               0\n",
            "           Conv2d-19          [-1, 144, 56, 56]           3,456\n",
            "      BatchNorm2d-20          [-1, 144, 56, 56]             288\n",
            "            ReLU6-21          [-1, 144, 56, 56]               0\n",
            "           Conv2d-22          [-1, 144, 56, 56]           1,296\n",
            "      BatchNorm2d-23          [-1, 144, 56, 56]             288\n",
            "            ReLU6-24          [-1, 144, 56, 56]               0\n",
            "           Conv2d-25           [-1, 24, 56, 56]           3,456\n",
            "      BatchNorm2d-26           [-1, 24, 56, 56]              48\n",
            " InvertedResidual-27           [-1, 24, 56, 56]               0\n",
            "           Conv2d-28          [-1, 144, 56, 56]           3,456\n",
            "      BatchNorm2d-29          [-1, 144, 56, 56]             288\n",
            "            ReLU6-30          [-1, 144, 56, 56]               0\n",
            "           Conv2d-31          [-1, 144, 28, 28]           1,296\n",
            "      BatchNorm2d-32          [-1, 144, 28, 28]             288\n",
            "            ReLU6-33          [-1, 144, 28, 28]               0\n",
            "           Conv2d-34           [-1, 32, 28, 28]           4,608\n",
            "      BatchNorm2d-35           [-1, 32, 28, 28]              64\n",
            " InvertedResidual-36           [-1, 32, 28, 28]               0\n",
            "           Conv2d-37          [-1, 192, 28, 28]           6,144\n",
            "      BatchNorm2d-38          [-1, 192, 28, 28]             384\n",
            "            ReLU6-39          [-1, 192, 28, 28]               0\n",
            "           Conv2d-40          [-1, 192, 28, 28]           1,728\n",
            "      BatchNorm2d-41          [-1, 192, 28, 28]             384\n",
            "            ReLU6-42          [-1, 192, 28, 28]               0\n",
            "           Conv2d-43           [-1, 32, 28, 28]           6,144\n",
            "      BatchNorm2d-44           [-1, 32, 28, 28]              64\n",
            " InvertedResidual-45           [-1, 32, 28, 28]               0\n",
            "           Conv2d-46          [-1, 192, 28, 28]           6,144\n",
            "      BatchNorm2d-47          [-1, 192, 28, 28]             384\n",
            "            ReLU6-48          [-1, 192, 28, 28]               0\n",
            "           Conv2d-49          [-1, 192, 28, 28]           1,728\n",
            "      BatchNorm2d-50          [-1, 192, 28, 28]             384\n",
            "            ReLU6-51          [-1, 192, 28, 28]               0\n",
            "           Conv2d-52           [-1, 32, 28, 28]           6,144\n",
            "      BatchNorm2d-53           [-1, 32, 28, 28]              64\n",
            " InvertedResidual-54           [-1, 32, 28, 28]               0\n",
            "           Conv2d-55          [-1, 192, 28, 28]           6,144\n",
            "      BatchNorm2d-56          [-1, 192, 28, 28]             384\n",
            "            ReLU6-57          [-1, 192, 28, 28]               0\n",
            "           Conv2d-58          [-1, 192, 14, 14]           1,728\n",
            "      BatchNorm2d-59          [-1, 192, 14, 14]             384\n",
            "            ReLU6-60          [-1, 192, 14, 14]               0\n",
            "           Conv2d-61           [-1, 64, 14, 14]          12,288\n",
            "      BatchNorm2d-62           [-1, 64, 14, 14]             128\n",
            " InvertedResidual-63           [-1, 64, 14, 14]               0\n",
            "           Conv2d-64          [-1, 384, 14, 14]          24,576\n",
            "      BatchNorm2d-65          [-1, 384, 14, 14]             768\n",
            "            ReLU6-66          [-1, 384, 14, 14]               0\n",
            "           Conv2d-67          [-1, 384, 14, 14]           3,456\n",
            "      BatchNorm2d-68          [-1, 384, 14, 14]             768\n",
            "            ReLU6-69          [-1, 384, 14, 14]               0\n",
            "           Conv2d-70           [-1, 64, 14, 14]          24,576\n",
            "      BatchNorm2d-71           [-1, 64, 14, 14]             128\n",
            " InvertedResidual-72           [-1, 64, 14, 14]               0\n",
            "           Conv2d-73          [-1, 384, 14, 14]          24,576\n",
            "      BatchNorm2d-74          [-1, 384, 14, 14]             768\n",
            "            ReLU6-75          [-1, 384, 14, 14]               0\n",
            "           Conv2d-76          [-1, 384, 14, 14]           3,456\n",
            "      BatchNorm2d-77          [-1, 384, 14, 14]             768\n",
            "            ReLU6-78          [-1, 384, 14, 14]               0\n",
            "           Conv2d-79           [-1, 64, 14, 14]          24,576\n",
            "      BatchNorm2d-80           [-1, 64, 14, 14]             128\n",
            " InvertedResidual-81           [-1, 64, 14, 14]               0\n",
            "           Conv2d-82          [-1, 384, 14, 14]          24,576\n",
            "      BatchNorm2d-83          [-1, 384, 14, 14]             768\n",
            "            ReLU6-84          [-1, 384, 14, 14]               0\n",
            "           Conv2d-85          [-1, 384, 14, 14]           3,456\n",
            "      BatchNorm2d-86          [-1, 384, 14, 14]             768\n",
            "            ReLU6-87          [-1, 384, 14, 14]               0\n",
            "           Conv2d-88           [-1, 64, 14, 14]          24,576\n",
            "      BatchNorm2d-89           [-1, 64, 14, 14]             128\n",
            " InvertedResidual-90           [-1, 64, 14, 14]               0\n",
            "           Conv2d-91          [-1, 384, 14, 14]          24,576\n",
            "      BatchNorm2d-92          [-1, 384, 14, 14]             768\n",
            "            ReLU6-93          [-1, 384, 14, 14]               0\n",
            "           Conv2d-94          [-1, 384, 14, 14]           3,456\n",
            "      BatchNorm2d-95          [-1, 384, 14, 14]             768\n",
            "            ReLU6-96          [-1, 384, 14, 14]               0\n",
            "           Conv2d-97           [-1, 96, 14, 14]          36,864\n",
            "      BatchNorm2d-98           [-1, 96, 14, 14]             192\n",
            " InvertedResidual-99           [-1, 96, 14, 14]               0\n",
            "          Conv2d-100          [-1, 576, 14, 14]          55,296\n",
            "     BatchNorm2d-101          [-1, 576, 14, 14]           1,152\n",
            "           ReLU6-102          [-1, 576, 14, 14]               0\n",
            "          Conv2d-103          [-1, 576, 14, 14]           5,184\n",
            "     BatchNorm2d-104          [-1, 576, 14, 14]           1,152\n",
            "           ReLU6-105          [-1, 576, 14, 14]               0\n",
            "          Conv2d-106           [-1, 96, 14, 14]          55,296\n",
            "     BatchNorm2d-107           [-1, 96, 14, 14]             192\n",
            "InvertedResidual-108           [-1, 96, 14, 14]               0\n",
            "          Conv2d-109          [-1, 576, 14, 14]          55,296\n",
            "     BatchNorm2d-110          [-1, 576, 14, 14]           1,152\n",
            "           ReLU6-111          [-1, 576, 14, 14]               0\n",
            "          Conv2d-112          [-1, 576, 14, 14]           5,184\n",
            "     BatchNorm2d-113          [-1, 576, 14, 14]           1,152\n",
            "           ReLU6-114          [-1, 576, 14, 14]               0\n",
            "          Conv2d-115           [-1, 96, 14, 14]          55,296\n",
            "     BatchNorm2d-116           [-1, 96, 14, 14]             192\n",
            "InvertedResidual-117           [-1, 96, 14, 14]               0\n",
            "          Conv2d-118          [-1, 576, 14, 14]          55,296\n",
            "     BatchNorm2d-119          [-1, 576, 14, 14]           1,152\n",
            "           ReLU6-120          [-1, 576, 14, 14]               0\n",
            "          Conv2d-121            [-1, 576, 7, 7]           5,184\n",
            "     BatchNorm2d-122            [-1, 576, 7, 7]           1,152\n",
            "           ReLU6-123            [-1, 576, 7, 7]               0\n",
            "          Conv2d-124            [-1, 160, 7, 7]          92,160\n",
            "     BatchNorm2d-125            [-1, 160, 7, 7]             320\n",
            "InvertedResidual-126            [-1, 160, 7, 7]               0\n",
            "          Conv2d-127            [-1, 960, 7, 7]         153,600\n",
            "     BatchNorm2d-128            [-1, 960, 7, 7]           1,920\n",
            "           ReLU6-129            [-1, 960, 7, 7]               0\n",
            "          Conv2d-130            [-1, 960, 7, 7]           8,640\n",
            "     BatchNorm2d-131            [-1, 960, 7, 7]           1,920\n",
            "           ReLU6-132            [-1, 960, 7, 7]               0\n",
            "          Conv2d-133            [-1, 160, 7, 7]         153,600\n",
            "     BatchNorm2d-134            [-1, 160, 7, 7]             320\n",
            "InvertedResidual-135            [-1, 160, 7, 7]               0\n",
            "          Conv2d-136            [-1, 960, 7, 7]         153,600\n",
            "     BatchNorm2d-137            [-1, 960, 7, 7]           1,920\n",
            "           ReLU6-138            [-1, 960, 7, 7]               0\n",
            "          Conv2d-139            [-1, 960, 7, 7]           8,640\n",
            "     BatchNorm2d-140            [-1, 960, 7, 7]           1,920\n",
            "           ReLU6-141            [-1, 960, 7, 7]               0\n",
            "          Conv2d-142            [-1, 160, 7, 7]         153,600\n",
            "     BatchNorm2d-143            [-1, 160, 7, 7]             320\n",
            "InvertedResidual-144            [-1, 160, 7, 7]               0\n",
            "          Conv2d-145            [-1, 960, 7, 7]         153,600\n",
            "     BatchNorm2d-146            [-1, 960, 7, 7]           1,920\n",
            "           ReLU6-147            [-1, 960, 7, 7]               0\n",
            "          Conv2d-148            [-1, 960, 7, 7]           8,640\n",
            "     BatchNorm2d-149            [-1, 960, 7, 7]           1,920\n",
            "           ReLU6-150            [-1, 960, 7, 7]               0\n",
            "          Conv2d-151            [-1, 320, 7, 7]         307,200\n",
            "     BatchNorm2d-152            [-1, 320, 7, 7]             640\n",
            "InvertedResidual-153            [-1, 320, 7, 7]               0\n",
            "          Conv2d-154           [-1, 1280, 7, 7]         409,600\n",
            "     BatchNorm2d-155           [-1, 1280, 7, 7]           2,560\n",
            "           ReLU6-156           [-1, 1280, 7, 7]               0\n",
            "         Dropout-157                 [-1, 1280]               0\n",
            "          Linear-158                 [-1, 1000]       1,281,000\n",
            "================================================================\n",
            "Total params: 3,504,872\n",
            "Trainable params: 3,504,872\n",
            "Non-trainable params: 0\n",
            "----------------------------------------------------------------\n",
            "Input size (MB): 0.57\n",
            "Forward/backward pass size (MB): 152.87\n",
            "Params size (MB): 13.37\n",
…
      "source": [
        "# Show Model Parameters\n",
        "from torchsummary import summary\n",
        "\n",
        "summary(model, input_size = (3,224,224))"
      ],
      "execution_count": 28,
      "outputs": [
        {
          "output_type": "stream",
          "name": "stdout",
          "text": [
            "----------------------------------------------------------------\n",
            "        Layer (type)               Output Shape         Param #\n",
            "================================================================\n",
            "            Conv2d-1         [-1, 96, 109, 109]          14,208\n",
            "              ReLU-2         [-1, 96, 109, 109]               0\n",
            "         MaxPool2d-3           [-1, 96, 54, 54]               0\n",
            "            Conv2d-4           [-1, 16, 54, 54]           1,552\n",
            "              ReLU-5           [-1, 16, 54, 54]               0\n",
            "            Conv2d-6           [-1, 64, 54, 54]           1,088\n",
            "              ReLU-7           [-1, 64, 54, 54]               0\n",
            "            Conv2d-8           [-1, 64, 54, 54]           9,280\n",
            "              ReLU-9           [-1, 64, 54, 54]               0\n",
            "             Fire-10          [-1, 128, 54, 54]               0\n",
            "           Conv2d-11           [-1, 16, 54, 54]           2,064\n",
            "             ReLU-12           [-1, 16, 54, 54]               0\n",
            "           Conv2d-13           [-1, 64, 54, 54]           1,088\n",
            "             ReLU-14           [-1, 64, 54, 54]               0\n",
            "           Conv2d-15           [-1, 64, 54, 54]           9,280\n",
            "             ReLU-16           [-1, 64, 54, 54]               0\n",
            "             Fire-17          [-1, 128, 54, 54]               0\n",
            "           Conv2d-18           [-1, 32, 54, 54]           4,128\n",
            "             ReLU-19           [-1, 32, 54, 54]               0\n",
            "           Conv2d-20          [-1, 128, 54, 54]           4,224\n",
            "             ReLU-21          [-1, 128, 54, 54]               0\n",
            "           Conv2d-22          [-1, 128, 54, 54]          36,992\n",
            "             ReLU-23          [-1, 128, 54, 54]               0\n",
            "             Fire-24          [-1, 256, 54, 54]               0\n",
            "        MaxPool2d-25          [-1, 256, 27, 27]               0\n",
            "           Conv2d-26           [-1, 32, 27, 27]           8,224\n",
            "             ReLU-27           [-1, 32, 27, 27]               0\n",
            "           Conv2d-28          [-1, 128, 27, 27]           4,224\n",
            "             ReLU-29          [-1, 128, 27, 27]               0\n",
            "           Conv2d-30          [-1, 128, 27, 27]          36,992\n",
            "             ReLU-31          [-1, 128, 27, 27]               0\n",
            "             Fire-32          [-1, 256, 27, 27]               0\n",
            "           Conv2d-33           [-1, 48, 27, 27]          12,336\n",
            "             ReLU-34           [-1, 48, 27, 27]               0\n",
            "           Conv2d-35          [-1, 192, 27, 27]           9,408\n",
            "             ReLU-36          [-1, 192, 27, 27]               0\n",
            "           Conv2d-37          [-1, 192, 27, 27]          83,136\n",
            "             ReLU-38          [-1, 192, 27, 27]               0\n",
            "             Fire-39          [-1, 384, 27, 27]               0\n",
            "           Conv2d-40           [-1, 48, 27, 27]          18,480\n",
            "             ReLU-41           [-1, 48, 27, 27]               0\n",
            "           Conv2d-42          [-1, 192, 27, 27]           9,408\n",
            "             ReLU-43          [-1, 192, 27, 27]               0\n",
            "           Conv2d-44          [-1, 192, 27, 27]          83,136\n",
            "             ReLU-45          [-1, 192, 27, 27]               0\n",
            "             Fire-46          [-1, 384, 27, 27]               0\n",
            "           Conv2d-47           [-1, 64, 27, 27]          24,640\n",
            "             ReLU-48           [-1, 64, 27, 27]               0\n",
            "           Conv2d-49          [-1, 256, 27, 27]          16,640\n",
            "             ReLU-50          [-1, 256, 27, 27]               0\n",
            "           Conv2d-51          [-1, 256, 27, 27]         147,712\n",
            "             ReLU-52          [-1, 256, 27, 27]               0\n",
            "             Fire-53          [-1, 512, 27, 27]               0\n",
            "        MaxPool2d-54          [-1, 512, 13, 13]               0\n",
            "           Conv2d-55           [-1, 64, 13, 13]          32,832\n",
            "             ReLU-56           [-1, 64, 13, 13]               0\n",
            "           Conv2d-57          [-1, 256, 13, 13]          16,640\n",
            "             ReLU-58          [-1, 256, 13, 13]               0\n",
            "           Conv2d-59          [-1, 256, 13, 13]         147,712\n",
            "             ReLU-60          [-1, 256, 13, 13]               0\n",
            "             Fire-61          [-1, 512, 13, 13]               0\n",
            "          Dropout-62          [-1, 512, 13, 13]               0\n",
            "           Conv2d-63         [-1, 1000, 13, 13]         513,000\n",
            "             ReLU-64         [-1, 1000, 13, 13]               0\n",
            "AdaptiveAvgPool2d-65           [-1, 1000, 1, 1]               0\n",
            "================================================================\n",
            "Total params: 1,248,424\n",
            "Trainable params: 1,248,424\n",
            "Non-trainable params: 0\n",
            "----------------------------------------------------------------\n",
            "Input size (MB): 0.57\n",
            "Forward/backward pass size (MB): 91.80\n",
            "Params size (MB): 4.76\n",
…
      "source": [
        "# Show Model Parameters\n",
        "from torchsummary import summary\n",
        "\n",
        "summary(model, input_size = (3,224,224))"
      ],
      "execution_count": null,
      "outputs": [
        {
          "output_type": "stream",
          "name": "stdout",
          "text": [
            "----------------------------------------------------------------\n",
            "        Layer (type)               Output Shape         Param #\n",
            "================================================================\n",
            "            Conv2d-1         [-1, 64, 112, 112]           9,408\n",
            "       BatchNorm2d-2         [-1, 64, 112, 112]             128\n",
            "              ReLU-3         [-1, 64, 112, 112]               0\n",
            "         MaxPool2d-4           [-1, 64, 56, 56]               0\n",
            "            Conv2d-5          [-1, 128, 56, 56]           8,192\n",
            "       BatchNorm2d-6          [-1, 128, 56, 56]             256\n",
            "              ReLU-7          [-1, 128, 56, 56]               0\n",
            "            Conv2d-8          [-1, 128, 56, 56]         147,456\n",
            "       BatchNorm2d-9          [-1, 128, 56, 56]             256\n",
            "             ReLU-10          [-1, 128, 56, 56]               0\n",
            "           Conv2d-11          [-1, 256, 56, 56]          32,768\n",
            "      BatchNorm2d-12          [-1, 256, 56, 56]             512\n",
            "           Conv2d-13          [-1, 256, 56, 56]          16,384\n",
            "      BatchNorm2d-14          [-1, 256, 56, 56]             512\n",
            "             ReLU-15          [-1, 256, 56, 56]               0\n",
            "       Bottleneck-16          [-1, 256, 56, 56]               0\n",
            "           Conv2d-17          [-1, 128, 56, 56]          32,768\n",
            "      BatchNorm2d-18          [-1, 128, 56, 56]             256\n",
            "             ReLU-19          [-1, 128, 56, 56]               0\n",
            "           Conv2d-20          [-1, 128, 56, 56]         147,456\n",
            "      BatchNorm2d-21          [-1, 128, 56, 56]             256\n",
            "             ReLU-22          [-1, 128, 56, 56]               0\n",
            "           Conv2d-23          [-1, 256, 56, 56]          32,768\n",
            "      BatchNorm2d-24          [-1, 256, 56, 56]             512\n",
            "             ReLU-25          [-1, 256, 56, 56]               0\n",
            "       Bottleneck-26          [-1, 256, 56, 56]               0\n",
            "           Conv2d-27          [-1, 128, 56, 56]          32,768\n",
            "      BatchNorm2d-28          [-1, 128, 56, 56]             256\n",
            "             ReLU-29          [-1, 128, 56, 56]               0\n",
            "           Conv2d-30          [-1, 128, 56, 56]         147,456\n",
            "      BatchNorm2d-31          [-1, 128, 56, 56]             256\n",
            "             ReLU-32          [-1, 128, 56, 56]               0\n",
            "           Conv2d-33          [-1, 256, 56, 56]          32,768\n",
            "      BatchNorm2d-34          [-1, 256, 56, 56]             512\n",
            "             ReLU-35          [-1, 256, 56, 56]               0\n",
            "       Bottleneck-36          [-1, 256, 56, 56]               0\n",
            "           Conv2d-37          [-1, 256, 56, 56]          65,536\n",
            "      BatchNorm2d-38          [-1, 256, 56, 56]             512\n",
            "             ReLU-39          [-1, 256, 56, 56]               0\n",
            "           Conv2d-40          [-1, 256, 28, 28]         589,824\n",
            "      BatchNorm2d-41          [-1, 256, 28, 28]             512\n",
            "             ReLU-42          [-1, 256, 28, 28]               0\n",
            "           Conv2d-43          [-1, 512, 28, 28]         131,072\n",
            "      BatchNorm2d-44          [-1, 512, 28, 28]           1,024\n",
            "           Conv2d-45          [-1, 512, 28, 28]         131,072\n",
            "      BatchNorm2d-46          [-1, 512, 28, 28]           1,024\n",
            "             ReLU-47          [-1, 512, 28, 28]               0\n",
            "       Bottleneck-48          [-1, 512, 28, 28]               0\n",
            "           Conv2d-49          [-1, 256, 28, 28]         131,072\n",
            "      BatchNorm2d-50          [-1, 256, 28, 28]             512\n",
            "             ReLU-51          [-1, 256, 28, 28]               0\n",
            "           Conv2d-52          [-1, 256, 28, 28]         589,824\n",
            "      BatchNorm2d-53          [-1, 256, 28, 28]             512\n",
            "             ReLU-54          [-1, 256, 28, 28]               0\n",
            "           Conv2d-55          [-1, 512, 28, 28]         131,072\n",
            "      BatchNorm2d-56          [-1, 512, 28, 28]           1,024\n",
            "             ReLU-57          [-1, 512, 28, 28]               0\n",
            "       Bottleneck-58          [-1, 512, 28, 28]               0\n",
            "           Conv2d-59          [-1, 256, 28, 28]         131,072\n",
            "      BatchNorm2d-60          [-1, 256, 28, 28]             512\n",
            "             ReLU-61          [-1, 256, 28, 28]               0\n",
            "           Conv2d-62          [-1, 256, 28, 28]         589,824\n",
            "      BatchNorm2d-63          [-1, 256, 28, 28]             512\n",
            "             ReLU-64          [-1, 256, 28, 28]               0\n",
            "           Conv2d-65          [-1, 512, 28, 28]         131,072\n",
            "      BatchNorm2d-66          [-1, 512, 28, 28]           1,024\n",
            "             ReLU-67          [-1, 512, 28, 28]               0\n",
            "       Bottleneck-68          [-1, 512, 28, 28]               0\n",
            "           Conv2d-69          [-1, 256, 28, 28]         131,072\n",
            "      BatchNorm2d-70          [-1, 256, 28, 28]             512\n",
            "             ReLU-71          [-1, 256, 28, 28]               0\n",
            "           Conv2d-72          [-1, 256, 28, 28]         589,824\n",
            "      BatchNorm2d-73          [-1, 256, 28, 28]             512\n",
            "             ReLU-74          [-1, 256, 28, 28]               0\n",
            "           Conv2d-75          [-1, 512, 28, 28]         131,072\n",
            "      BatchNorm2d-76          [-1, 512, 28, 28]           1,024\n",
            "             ReLU-77          [-1, 512, 28, 28]               0\n",
            "       Bottleneck-78          [-1, 512, 28, 28]               0\n",
            "           Conv2d-79          [-1, 512, 28, 28]         262,144\n",
            "      BatchNorm2d-80          [-1, 512, 28, 28]           1,024\n",
            "             ReLU-81          [-1, 512, 28, 28]               0\n",
            "           Conv2d-82          [-1, 512, 14, 14]       2,359,296\n",
            "      BatchNorm2d-83          [-1, 512, 14, 14]           1,024\n",
            "             ReLU-84          [-1, 512, 14, 14]               0\n",
            "           Conv2d-85         [-1, 1024, 14, 14]         524,288\n",
            "      BatchNorm2d-86         [-1, 1024, 14, 14]           2,048\n",
            "           Conv2d-87         [-1, 1024, 14, 14]         524,288\n",
            "      BatchNorm2d-88         [-1, 1024, 14, 14]           2,048\n",
            "             ReLU-89         [-1, 1024, 14, 14]               0\n",
            "       Bottleneck-90         [-1, 1024, 14, 14]               0\n",
            "           Conv2d-91          [-1, 512, 14, 14]         524,288\n",
            "      BatchNorm2d-92          [-1, 512, 14, 14]           1,024\n",
            "             ReLU-93          [-1, 512, 14, 14]               0\n",
            "           Conv2d-94          [-1, 512, 14, 14]       2,359,296\n",
            "      BatchNorm2d-95          [-1, 512, 14, 14]           1,024\n",
            "             ReLU-96          [-1, 512, 14, 14]               0\n",
            "           Conv2d-97         [-1, 1024, 14, 14]         524,288\n",
            "      BatchNorm2d-98         [-1, 1024, 14, 14]           2,048\n",
            "             ReLU-99         [-1, 1024, 14, 14]               0\n",
            "      Bottleneck-100         [-1, 1024, 14, 14]               0\n",
            "          Conv2d-101          [-1, 512, 14, 14]         524,288\n",
            "     BatchNorm2d-102          [-1, 512, 14, 14]           1,024\n",
            "            ReLU-103          [-1, 512, 14, 14]               0\n",
            "          Conv2d-104          [-1, 512, 14, 14]       2,359,296\n",
            "     BatchNorm2d-105          [-1, 512, 14, 14]           1,024\n",
            "            ReLU-106          [-1, 512, 14, 14]               0\n",
            "          Conv2d-107         [-1, 1024, 14, 14]         524,288\n",
            "     BatchNorm2d-108         [-1, 1024, 14, 14]           2,048\n",
            "            ReLU-109         [-1, 1024, 14, 14]               0\n",
            "      Bottleneck-110         [-1, 1024, 14, 14]               0\n",
            "          Conv2d-111          [-1, 512, 14, 14]         524,288\n",
            "     BatchNorm2d-112          [-1, 512, 14, 14]           1,024\n",
            "            ReLU-113          [-1, 512, 14, 14]               0\n",
            "          Conv2d-114          [-1, 512, 14, 14]       2,359,296\n",
            "     BatchNorm2d-115          [-1, 512, 14, 14]           1,024\n",
            "            ReLU-116          [-1, 512, 14, 14]               0\n",
            "          Conv2d-117         [-1, 1024, 14, 14]         524,288\n",
            "     BatchNorm2d-118         [-1, 1024, 14, 14]           2,048\n",
            "            ReLU-119         [-1, 1024, 14, 14]               0\n",
            "      Bottleneck-120         [-1, 1024, 14, 14]               0\n",
            "          Conv2d-121          [-1, 512, 14, 14]         524,288\n",
            "     BatchNorm2d-122          [-1, 512, 14, 14]           1,024\n",
            "            ReLU-123          [-1, 512, 14, 14]               0\n",
            "          Conv2d-124          [-1, 512, 14, 14]       2,359,296\n",
            "     BatchNorm2d-125          [-1, 512, 14, 14]           1,024\n",
            "            ReLU-126          [-1, 512, 14, 14]               0\n",
            "          Conv2d-127         [-1, 1024, 14, 14]         524,288\n",
            "     BatchNorm2d-128         [-1, 1024, 14, 14]           2,048\n",
            "            ReLU-129         [-1, 1024, 14, 14]               0\n",
            "      Bottleneck-130         [-1, 1024, 14, 14]               0\n",
            "          Conv2d-131          [-1, 512, 14, 14]         524,288\n",
            "     BatchNorm2d-132          [-1, 512, 14, 14]           1,024\n",
            "            ReLU-133          [-1, 512, 14, 14]               0\n",
            "          Conv2d-134          [-1, 512, 14, 14]       2,359,296\n",
            "     BatchNorm2d-135          [-1, 512, 14, 14]           1,024\n",
            "            ReLU-136          [-1, 512, 14, 14]               0\n",
            "          Conv2d-137         [-1, 1024, 14, 14]         524,288\n",
            "     BatchNorm2d-138         [-1, 1024, 14, 14]           2,048\n",
            "            ReLU-139         [-1, 1024, 14, 14]               0\n",
            "      Bottleneck-140         [-1, 1024, 14, 14]               0\n",
            "          Conv2d-141         [-1, 1024, 14, 14]       1,048,576\n",
            "     BatchNorm2d-142         [-1, 1024, 14, 14]           2,048\n",
            "            ReLU-143         [-1, 1024, 14, 14]               0\n",
            "          Conv2d-144           [-1, 1024, 7, 7]       9,437,184\n",
            "     BatchNorm2d-145           [-1, 1024, 7, 7]           2,048\n",
            "            ReLU-146           [-1, 1024, 7, 7]               0\n",
            "          Conv2d-147           [-1, 2048, 7, 7]       2,097,152\n",
            "     BatchNorm2d-148           [-1, 2048, 7, 7]           4,096\n",
            "          Conv2d-149           [-1, 2048, 7, 7]       2,097,152\n",
            "     BatchNorm2d-150           [-1, 2048, 7, 7]           4,096\n",
            "            ReLU-151           [-1, 2048, 7, 7]               0\n",
            "      Bottleneck-152           [-1, 2048, 7, 7]               0\n",
            "          Conv2d-153           [-1, 1024, 7, 7]       2,097,152\n",
            "     BatchNorm2d-154           [-1, 1024, 7, 7]           2,048\n",
            "            ReLU-155           [-1, 1024, 7, 7]               0\n",
            "          Conv2d-156           [-1, 1024, 7, 7]       9,437,184\n",
            "     BatchNorm2d-157           [-1, 1024, 7, 7]           2,048\n",
            "            ReLU-158           [-1, 1024, 7, 7]               0\n",
            "          Conv2d-159           [-1, 2048, 7, 7]       2,097,152\n",
            "     BatchNorm2d-160           [-1, 2048, 7, 7]           4,096\n",
            "            ReLU-161           [-1, 2048, 7, 7]               0\n",
            "      Bottleneck-162           [-1, 2048, 7, 7]               0\n",
            "          Conv2d-163           [-1, 1024, 7, 7]       2,097,152\n",
            "     BatchNorm2d-164           [-1, 1024, 7, 7]           2,048\n",
            "            ReLU-165           [-1, 1024, 7, 7]               0\n",
            "          Conv2d-166           [-1, 1024, 7, 7]       9,437,184\n",
            "     BatchNorm2d-167           [-1, 1024, 7, 7]           2,048\n",
            "            ReLU-168           [-1, 1024, 7, 7]               0\n",
            "          Conv2d-169           [-1, 2048, 7, 7]       2,097,152\n",
            "     BatchNorm2d-170           [-1, 2048, 7, 7]           4,096\n",
            "            ReLU-171           [-1, 2048, 7, 7]               0\n",
            "      Bottleneck-172           [-1, 2048, 7, 7]               0\n",
            "AdaptiveAvgPool2d-173           [-1, 2048, 1, 1]               0\n",
            "          Linear-174                 [-1, 1000]       2,049,000\n",
            "================================================================\n",
            "Total params: 68,883,240\n",
            "Trainable params: 68,883,240\n",
            "Non-trainable params: 0\n",
            "----------------------------------------------------------------\n",
            "Input size (MB): 0.57\n",
            "Forward/backward pass size (MB): 361.78\n",
            "Params size (MB): 262.77\n",
…
      "source": [
        "# Show Model Parameters\n",
        "from torchsummary import summary\n",
        "\n",
        "summary(model, input_size = (3,224,224))"
      ],
      "execution_count": 32,
      "outputs": [
        {
          "output_type": "stream",
          "name": "stdout",
          "text": [
            "----------------------------------------------------------------\n",
            "        Layer (type)               Output Shape         Param #\n",
            "================================================================\n",
            "            Conv2d-1         [-1, 32, 112, 112]             864\n",
            "       BatchNorm2d-2         [-1, 32, 112, 112]              64\n",
            "              ReLU-3         [-1, 32, 112, 112]               0\n",
            "            Conv2d-4         [-1, 32, 112, 112]             288\n",
            "       BatchNorm2d-5         [-1, 32, 112, 112]              64\n",
            "              ReLU-6         [-1, 32, 112, 112]               0\n",
            "            Conv2d-7         [-1, 16, 112, 112]             512\n",
            "       BatchNorm2d-8         [-1, 16, 112, 112]              32\n",
            "            Conv2d-9         [-1, 48, 112, 112]             768\n",
            "      BatchNorm2d-10         [-1, 48, 112, 112]              96\n",
            "             ReLU-11         [-1, 48, 112, 112]               0\n",
            "           Conv2d-12           [-1, 48, 56, 56]             432\n",
            "      BatchNorm2d-13           [-1, 48, 56, 56]              96\n",
            "             ReLU-14           [-1, 48, 56, 56]               0\n",
            "           Conv2d-15           [-1, 24, 56, 56]           1,152\n",
            "      BatchNorm2d-16           [-1, 24, 56, 56]              48\n",
            "_InvertedResidual-17           [-1, 24, 56, 56]               0\n",
            "           Conv2d-18           [-1, 72, 56, 56]           1,728\n",
            "      BatchNorm2d-19           [-1, 72, 56, 56]             144\n",
            "             ReLU-20           [-1, 72, 56, 56]               0\n",
            "           Conv2d-21           [-1, 72, 56, 56]             648\n",
            "      BatchNorm2d-22           [-1, 72, 56, 56]             144\n",
            "             ReLU-23           [-1, 72, 56, 56]               0\n",
            "           Conv2d-24           [-1, 24, 56, 56]           1,728\n",
            "      BatchNorm2d-25           [-1, 24, 56, 56]              48\n",
            "_InvertedResidual-26           [-1, 24, 56, 56]               0\n",
            "           Conv2d-27           [-1, 72, 56, 56]           1,728\n",
            "      BatchNorm2d-28           [-1, 72, 56, 56]             144\n",
            "             ReLU-29           [-1, 72, 56, 56]               0\n",
            "           Conv2d-30           [-1, 72, 56, 56]             648\n",
            "      BatchNorm2d-31           [-1, 72, 56, 56]             144\n",
            "             ReLU-32           [-1, 72, 56, 56]               0\n",
            "           Conv2d-33           [-1, 24, 56, 56]           1,728\n",
            "      BatchNorm2d-34           [-1, 24, 56, 56]              48\n",
            "_InvertedResidual-35           [-1, 24, 56, 56]               0\n",
            "           Conv2d-36           [-1, 72, 56, 56]           1,728\n",
            "      BatchNorm2d-37           [-1, 72, 56, 56]             144\n",
            "             ReLU-38           [-1, 72, 56, 56]               0\n",
            "           Conv2d-39           [-1, 72, 28, 28]           1,800\n",
            "      BatchNorm2d-40           [-1, 72, 28, 28]             144\n",
            "             ReLU-41           [-1, 72, 28, 28]               0\n",
            "           Conv2d-42           [-1, 40, 28, 28]           2,880\n",
            "      BatchNorm2d-43           [-1, 40, 28, 28]              80\n",
            "_InvertedResidual-44           [-1, 40, 28, 28]               0\n",
            "           Conv2d-45          [-1, 120, 28, 28]           4,800\n",
            "      BatchNorm2d-46          [-1, 120, 28, 28]             240\n",
            "             ReLU-47          [-1, 120, 28, 28]               0\n",
            "           Conv2d-48          [-1, 120, 28, 28]           3,000\n",
            "      BatchNorm2d-49          [-1, 120, 28, 28]             240\n",
            "             ReLU-50          [-1, 120, 28, 28]               0\n",
            "           Conv2d-51           [-1, 40, 28, 28]           4,800\n",
            "      BatchNorm2d-52           [-1, 40, 28, 28]              80\n",
            "_InvertedResidual-53           [-1, 40, 28, 28]               0\n",
            "           Conv2d-54          [-1, 120, 28, 28]           4,800\n",
            "      BatchNorm2d-55          [-1, 120, 28, 28]             240\n",
            "             ReLU-56          [-1, 120, 28, 28]               0\n",
            "           Conv2d-57          [-1, 120, 28, 28]           3,000\n",
            "      BatchNorm2d-58          [-1, 120, 28, 28]             240\n",
            "             ReLU-59          [-1, 120, 28, 28]               0\n",
            "           Conv2d-60           [-1, 40, 28, 28]           4,800\n",
            "      BatchNorm2d-61           [-1, 40, 28, 28]              80\n",
            "_InvertedResidual-62           [-1, 40, 28, 28]               0\n",
            "           Conv2d-63          [-1, 240, 28, 28]           9,600\n",
            "      BatchNorm2d-64          [-1, 240, 28, 28]             480\n",
            "             ReLU-65          [-1, 240, 28, 28]               0\n",
            "           Conv2d-66          [-1, 240, 14, 14]           6,000\n",
            "      BatchNorm2d-67          [-1, 240, 14, 14]             480\n",
            "             ReLU-68          [-1, 240, 14, 14]               0\n",
            "           Conv2d-69           [-1, 80, 14, 14]          19,200\n",
            "      BatchNorm2d-70           [-1, 80, 14, 14]             160\n",
            "_InvertedResidual-71           [-1, 80, 14, 14]               0\n",
            "           Conv2d-72          [-1, 480, 14, 14]          38,400\n",
            "      BatchNorm2d-73          [-1, 480, 14, 14]             960\n",
            "             ReLU-74          [-1, 480, 14, 14]               0\n",
            "           Conv2d-75          [-1, 480, 14, 14]          12,000\n",
            "      BatchNorm2d-76          [-1, 480, 14, 14]             960\n",
            "             ReLU-77          [-1, 480, 14, 14]               0\n",
            "           Conv2d-78           [-1, 80, 14, 14]          38,400\n",
            "      BatchNorm2d-79           [-1, 80, 14, 14]             160\n",
            "_InvertedResidual-80           [-1, 80, 14, 14]               0\n",
            "           Conv2d-81          [-1, 480, 14, 14]          38,400\n",
            "      BatchNorm2d-82          [-1, 480, 14, 14]             960\n",
            "             ReLU-83          [-1, 480, 14, 14]               0\n",
            "           Conv2d-84          [-1, 480, 14, 14]          12,000\n",
            "      BatchNorm2d-85          [-1, 480, 14, 14]             960\n",
            "             ReLU-86          [-1, 480, 14, 14]               0\n",
            "           Conv2d-87           [-1, 80, 14, 14]          38,400\n",
            "      BatchNorm2d-88           [-1, 80, 14, 14]             160\n",
            "_InvertedResidual-89           [-1, 80, 14, 14]               0\n",
            "           Conv2d-90          [-1, 480, 14, 14]          38,400\n",
            "      BatchNorm2d-91          [-1, 480, 14, 14]             960\n",
            "             ReLU-92          [-1, 480, 14, 14]               0\n",
            "           Conv2d-93          [-1, 480, 14, 14]           4,320\n",
            "      BatchNorm2d-94          [-1, 480, 14, 14]             960\n",
            "             ReLU-95          [-1, 480, 14, 14]               0\n",
            "           Conv2d-96           [-1, 96, 14, 14]          46,080\n",
            "      BatchNorm2d-97           [-1, 96, 14, 14]             192\n",
            "_InvertedResidual-98           [-1, 96, 14, 14]               0\n",
            "           Conv2d-99          [-1, 576, 14, 14]          55,296\n",
            "     BatchNorm2d-100          [-1, 576, 14, 14]           1,152\n",
            "            ReLU-101          [-1, 576, 14, 14]               0\n",
            "          Conv2d-102          [-1, 576, 14, 14]           5,184\n",
            "     BatchNorm2d-103          [-1, 576, 14, 14]           1,152\n",
            "            ReLU-104          [-1, 576, 14, 14]               0\n",
            "          Conv2d-105           [-1, 96, 14, 14]          55,296\n",
            "     BatchNorm2d-106           [-1, 96, 14, 14]             192\n",
            "_InvertedResidual-107           [-1, 96, 14, 14]               0\n",
            "          Conv2d-108          [-1, 576, 14, 14]          55,296\n",
            "     BatchNorm2d-109          [-1, 576, 14, 14]           1,152\n",
            "            ReLU-110          [-1, 576, 14, 14]               0\n",
            "          Conv2d-111            [-1, 576, 7, 7]          14,400\n",
            "     BatchNorm2d-112            [-1, 576, 7, 7]           1,152\n",
            "            ReLU-113            [-1, 576, 7, 7]               0\n",
            "          Conv2d-114            [-1, 192, 7, 7]         110,592\n",
            "     BatchNorm2d-115            [-1, 192, 7, 7]             384\n",
            "_InvertedResidual-116            [-1, 192, 7, 7]               0\n",
            "          Conv2d-117           [-1, 1152, 7, 7]         221,184\n",
            "     BatchNorm2d-118           [-1, 1152, 7, 7]           2,304\n",
            "            ReLU-119           [-1, 1152, 7, 7]               0\n",
            "          Conv2d-120           [-1, 1152, 7, 7]          28,800\n",
            "     BatchNorm2d-121           [-1, 1152, 7, 7]           2,304\n",
            "            ReLU-122           [-1, 1152, 7, 7]               0\n",
            "          Conv2d-123            [-1, 192, 7, 7]         221,184\n",
            "     BatchNorm2d-124            [-1, 192, 7, 7]             384\n",
            "_InvertedResidual-125            [-1, 192, 7, 7]               0\n",
            "          Conv2d-126           [-1, 1152, 7, 7]         221,184\n",
            "     BatchNorm2d-127           [-1, 1152, 7, 7]           2,304\n",
            "            ReLU-128           [-1, 1152, 7, 7]               0\n",
            "          Conv2d-129           [-1, 1152, 7, 7]          28,800\n",
            "     BatchNorm2d-130           [-1, 1152, 7, 7]           2,304\n",
            "            ReLU-131           [-1, 1152, 7, 7]               0\n",
            "          Conv2d-132            [-1, 192, 7, 7]         221,184\n",
            "     BatchNorm2d-133            [-1, 192, 7, 7]             384\n",
            "_InvertedResidual-134            [-1, 192, 7, 7]               0\n",
            "          Conv2d-135           [-1, 1152, 7, 7]         221,184\n",
            "     BatchNorm2d-136           [-1, 1152, 7, 7]           2,304\n",
            "            ReLU-137           [-1, 1152, 7, 7]               0\n",
            "          Conv2d-138           [-1, 1152, 7, 7]          28,800\n",
            "     BatchNorm2d-139           [-1, 1152, 7, 7]           2,304\n",
            "            ReLU-140           [-1, 1152, 7, 7]               0\n",
            "          Conv2d-141            [-1, 192, 7, 7]         221,184\n",
            "     BatchNorm2d-142            [-1, 192, 7, 7]             384\n",
            "_InvertedResidual-143            [-1, 192, 7, 7]               0\n",
            "          Conv2d-144           [-1, 1152, 7, 7]         221,184\n",
            "     BatchNorm2d-145           [-1, 1152, 7, 7]           2,304\n",
            "            ReLU-146           [-1, 1152, 7, 7]               0\n",
            "          Conv2d-147           [-1, 1152, 7, 7]          10,368\n",
            "     BatchNorm2d-148           [-1, 1152, 7, 7]           2,304\n",
            "            ReLU-149           [-1, 1152, 7, 7]               0\n",
            "          Conv2d-150            [-1, 320, 7, 7]         368,640\n",
            "     BatchNorm2d-151            [-1, 320, 7, 7]             640\n",
            "_InvertedResidual-152            [-1, 320, 7, 7]               0\n",
            "          Conv2d-153           [-1, 1280, 7, 7]         409,600\n",
            "     BatchNorm2d-154           [-1, 1280, 7, 7]           2,560\n",
            "            ReLU-155           [-1, 1280, 7, 7]               0\n",
            "         Dropout-156                 [-1, 1280]               0\n",
            "          Linear-157                 [-1, 1000]       1,281,000\n",
            "================================================================\n",
            "Total params: 4,383,312\n",
            "Trainable params: 4,383,312\n",
            "Non-trainable params: 0\n",
            "----------------------------------------------------------------\n",
            "Input size (MB): 0.57\n",
            "Forward/backward pass size (MB): 123.38\n",
            "Params size (MB): 16.72\n",
…
